…
=1, padding_idx=0, embed_dim=4)\n</pre> basic_rnn = BasicRNN(vocab_size=4, hidden_dim=4, n_layers=1, padding_idx=0, embed_dim=4) <pre>/Users/javierrodriguezzaurin/.pyenv/versions/3.10.13/envs/widedeep310/lib/python3.10/site-packages/torch/nn/modules/rnn.py:82: UserWarning: dropout option adds dropout after all but last recurrent layer, so non-zero dropout expects num_layers greater than 1, but got dropout=0.1 and num_layers=1\n  warnings.warn(\"dropout option adds dropout after all but last \"\n</pre> In\u00a0[20]: Copied! <pre>basic_rnn\n</pre> basic_rnn Out[20]: <pre>BasicRNN(\n  (word_embed): Embedding(4, 4, padding_idx=0)\n  (rnn): LSTM(4, 4, batch_first=True, dropout=0.1)\n  (rnn_mlp): Identity()\n)</pre> <p>You could, if you wanted, add a Fully Connected Head (FC-Head) on top of it</p> In\u00a0[21]: Copied! <pre>from pytorch_widedeep.models import Vision\n</pre> from pytorch_widedeep.models import Vision In\u00a0[22]: Copied! <pre>resnet = Vision(pretrained_model_setup=\"resnet18\", n_trainable=0)\n</pre> resnet = Vision(pretrained_model_setup=\"resnet18\", n_trainable=0) In\u00a0[23]: Copied! <pre>resnet\n</pre> resnet Out[23]: <pre>Vision(\n  (features): Sequential(\n    (0): Conv2d(3, 64, kernel_size=(7, 7), stride=(2, 2), padding=(3, 3), bias=False)\n    (1): BatchNorm2d(64, eps=1e-05, momentum=0.1, affine=True, track_running_stats=True)\n    (2): ReLU(inplace=True)\n    (3): MaxPool2d(kernel_size=3, stride=2, padding=1, dilation=1, ceil_mode=False)\n    (4): Sequential(\n      (0): BasicBlock(\n        (conv1): Conv2d(64, 64, kernel_size=(3, 3), stride=(1, 1), padding=(1, 1), bias=False)\n        (bn1): BatchNorm2d(64, eps=1e-05, momentum=0.1, affine=True, track_running_stats=True)\n        (relu): ReLU(inplace=True)\n        (conv2): Conv2d(64, 64, kernel_size=(3, 3), stride=(1, 1), padding=(1, 1), bias=False)\n        (bn2): BatchNorm2d(64, eps=1e-05, momentum=0.1, affine=True, track_running_stats=True)\n      )\n      (1): BasicBlock(\n        (conv1): Conv2d(64, 64, kernel_size=(3, 3), stride=(1, 1), padding=(1, 1), bias=False)\n        (bn1): BatchNorm2d(64, eps=1e-05, momentum=0.1, affine=True, track_running_stats=True)\n        (relu): ReLU(inplace=True)\n        (conv2): Conv2d(64, 64, kernel_size=(3, 3), stride=(1, 1), padding=(1, 1), bias=False)\n        (bn2): BatchNorm2d(64, eps=1e-05, momentum=0.1, affine=True, track_running_stats=True)\n      )\n    )\n    (5): Sequential(\n      (0): BasicBlock(\n        (conv1): Conv2d(64, 128, kernel_size=(3, 3), stride=(2, 2), padding=(1, 1), bias=False)\n        (bn1): BatchNorm2d(128, eps=1e-05, momentum=0.1, affine=True, track_running_stats=True)\n        (relu): ReLU(inplace=True)\n        (conv2): Conv2d(128, 128, kernel_size=(3, 3), stride=(1, 1), padding=(1, 1), bias=False)\n        (bn2): BatchNorm2d(128, eps=1e-05, momentum=0.1, affine=True, track_running_stats=True)\n        (downsample): Sequential(\n          (0): Conv2d(64, 128, kernel_size=(1, 1), stride=(2, 2), bias=False)\n          (1): BatchNorm2d(128, eps=1e-05, momentum=0.1, affine=True, track_running_stats=True)\n        )\n      )\n      (1): BasicBlock(\n        (conv1): Conv2d(128, 128, kernel_size=(3, 3), stride=(1, 1), padding=(1, 1), bias=False)\n        (bn1): BatchNorm2d(128, eps=1e-05, momentum=0.1, affine=True, track_running_stats=True)\n        (relu): ReLU(inplace=True)\n        (conv2): Conv2d(128, 128, kernel_size=(3, 3), stride=(1, 1), padding=(1, 1), bias=False)\n        (bn2): BatchNorm2d(128, eps=1e-05, momentum=0.1, affine=True, track_running_stats=True)\n      )\n    )\n    (6): Sequential(\n      (0): BasicBlock(\n        (conv1): Conv2d(128, 256, kernel_size=(3, 3), stride=(2, 2), padding=(1, 1), bias=False)\n        (bn1): BatchNorm2d(256, eps=1e-05, momentum=0.1, affine=True, track_running_stats=True)\n        (relu): ReLU(inplace=True)\n        (conv2): Conv2d(256, 256, kernel_size=(3, 3), stride=(1, 1), padding=(1, 1), bias=False)\n        (bn2): BatchNorm2d(256, eps=1e-05, momentum=0.1, affine=True, track_running_stats=True)\n        (downsample): Sequential(\n          (0): Conv2d(128, 256, kernel_size=(1, 1), stride=(2, 2), bias=False)\n          (1): BatchNorm2d(256, eps=1e-05, momentum=0.1, affine=True, track_running_stats=True)\n        )\n      )\n      (1): BasicBlock(\n        (conv1): Conv2d(256, 256, kernel_size=(3, 3), stride=(1, 1), padding=(1, 1), bias=False)\n        (bn1): BatchNorm2d(256, eps=1e-05, momentum=0.1, affine=True, track_running_stats=True)\n        (relu): ReLU(inplace=True)\n        (conv2): Conv2d(256, 256, kernel_size=(3, 3), stride=(1, 1), padding=(1, 1), bias=False)\n        (bn2): BatchNorm2d(256, eps=1e-05, momentum=0.1, affine=True, track_running_stats=True)\n      )\n    )\n    (7): Sequential(\n      (0): BasicBlock(\n        (conv1): Conv2d(256, 512, kernel_size=(3, 3), stride=(2, 2), padding=(1, 1), bias=False)\n        (bn1): BatchNorm2d(512, eps=1e-05, momentum=0.1, affine=True, track_running_stats=True)\n        (relu): ReLU(inplace=True)\n        (conv2): Conv2d(512, 512, kernel_size=(3, 3), stride=(1, 1), padding=(1, 1), bias=False)\n        (bn2): BatchNorm2d(512, eps=1e-05, momentum=0.1, affine=True, track_running_stats=True)\n        (downsample): Sequential(\n          (0): Conv2d(256, 512, kernel_size=(1, 1), stride=(2, 2), bias=False)\n          (1): BatchNorm2d(512, eps=1e-05, momentum=0.1, affine=True, track_running_stats=True)\n        )\n      )\n      (1): BasicBlock(\n        (conv1): Conv2d(512, 512, kernel_size=(3, 3), stride=(1, 1), padding=(1, 1), bias=False)\n        (bn1): BatchNorm2d(512, eps=1e-05, momentum=0.1, affine=True, track_running_stats=True)\n        (relu): ReLU(inplace=True)\n        (conv2): Conv2d(512, 512, kernel_size=(3, 3), stride=(1, 1), padding=(1, 1), bias=False)\n        (bn2): BatchNorm2d(512, eps=1e-05, momentum=0.1, affine=True, track_running_stats=True)\n      )\n    )\n    (8): AdaptiveAvgPool2d(output_size=(1, 1))\n  )\n)</pre>"},{"location":"examples/02_model_components.html#model-components","title":"Model Components\u00b6","text":"<p>The main components of a <code>WideDeep</code> (i.e. Multimodal) model are tabular data, text and images, which are feed into the model via so
…
where the non-linearities are captured via the crossed columns. For the crossed-columns to be effective one needs proper business knowledge. There is no magic formula to produce them</p> <p>Let's have a look to the tabular model by itself</p> In\u00a0[20]: Copied! <pre>tab_model = WideDeep(deeptabular=tab_mlp)\n</pre> tab_model = WideDeep(deeptabular=tab_mlp) In\u00a0[21]: Copied! <pre>tab_model\n</pre> tab_model Out[21]: <pre>WideDeep(\n  (deeptabular): Sequential(\n    (0): TabMlp(\n      (cat_embed): DiffSizeCatEmbeddings(\n        (embed_layers): ModuleDict(\n          (emb_layer_workclass): Embedding(10, 5, padding_idx=0)\n          (emb_layer_education): Embedding(17, 8, padding_idx=0)\n          (emb_layer_marital_status): Embedding(8, 5, padding_idx=0)\n          (emb_layer_occupation): Embedding(16, 7, padding_idx=0)\n          (emb_layer_relationship): Embedding(7, 4, padding_idx=0)\n          (emb_layer_race): Embedding(6, 4, padding_idx=0)\n          (emb_layer_gender): Embedding(3, 2, padding_idx=0)\n          (emb_layer_capital_gain): Embedding(124, 24, padding_idx=0)\n          (emb_layer_capital_loss): Embedding(100, 21, padding_idx=0)\n          (emb_layer_native_country): Embedding(43, 13, padding_idx=0)\n        )\n        (embedding_dropout): Dropout(p=0.1, inplace=False)\n      )\n      (cont_norm): Identity()\n      (encoder): MLP(\n        (mlp): Sequential(\n          (dense_layer_0): Sequential(\n            (0): Linear(in_features=95, out_features=400, bias=True)\n            (1): LeakyReLU(negative_slope=0.01, inplace=True)\n            (2): Dropout(p=0.5, inplace=False)\n          )\n          (dense_layer_1): Sequential(\n            (0): Linear(in_features=400, out_features=200, bias=True)\n            (1): LeakyReLU(negative_slope=0.01, inplace=True)\n            (2): Dropout(p=0.5, inplace=False)\n          )\n        )\n      )\n    )\n    (1): Linear(in_features=200, out_features=1, bias=True)\n  )\n)</pre> <p>You can see how the <code>WideDeep</code> class has added a final prediction layer that collects the activations from the last layer of the model and plugs them into the output neuron. If this was a multiclass classification problem, the prediction dimension (i.e. the size of that final layer) needs to be specified via the <code>pred_dim
…
     embed_continuous_method=\"standard\",     cont_norm_layer=\"layernorm\",     cont_embed_dropout=0.2,     cont_embed_activation=\"leaky_relu\",     n_heads=4,     ff_dropout=0.2,     mlp_dropout=0.5,     mlp_activation=\"leaky_relu\",     mlp_linear_first=\"True\", ) In\u00a0[29]: Copied! <pre>tab_model = WideDeep(deeptabular=tab_transformer)\n</pre> tab_model = WideDeep(deeptabular=tab_transformer) In\u00a0[30]: Copied! <pre>tab_model\n</pre> tab_model Out[30]: <pre>WideDeep(\n  (deeptabular): Sequential(\n    (0): TabTransformer(\n      (cat_embed): SameSizeCatEmbeddings(\n        (embed): Embedding(325, 32, padding_idx=0)\n        (dropout): Dropout(p=0.1, inplace=False)\n      )\n      (cont_norm): LayerNorm((2,), eps=1e-05, elementwise_affine=True)\n      (cont_embed): ContEmbeddings(\n        INFO: [ContLinear = weight(n_cont_cols, embed_dim) + bias(n_cont_cols, embed_dim)]\n        (linear): ContLinear(n_cont_cols=2, embed_dim=32, embed_dropout=0.2)\n        (activation_fn): LeakyReLU(negative_slope=0.01, inplace=True)\n        (dropout): Dropout(p=0.2, inplace=False)\n      )\n      (encoder): Sequential(\n        (transformer_block0): TransformerEncoder(\n          (attn): MultiHeadedAttention(\n            (dropout): Dropout(p=0.2, inplace=False)\n            (q_proj): Linear(in_features=32, out_features=32, bias=False)\n            (kv_proj): Linear(in_features=32, out_features=64, bias=False)\n            (out_proj): Linear(in_features=32, out_features=32, bias=False)\n          )\n          (ff): FeedForward(\n            (w_1): Linear(in_features=32, out_features=128, bias=True)\n            (w_2): Linear(in_features=128, out_features=32, bias=True)\n            (dropout): Dropout(p=0.2, inplace=False)\n            (activation): GELU(approximate='none')\n          )\n          (attn_addnorm): AddNorm(\n            (dropout): Dropout(p=0.2, inplace=False)\n            (ln): LayerNorm((32,), eps=1e-05, elementwise_affine=True)\n          )\n          (ff_addnorm): AddNorm(\n            (dropout): Dropout(p=0.2, inplace=False)\n            (ln): LayerNorm((32,), eps=1e-05, elementwise_affine=True)\n          )\n        )\n        (transformer_block1): TransformerEncoder(\n          (attn): MultiHeadedAttention(\n            (dropout): Dropout(p=0.2, inplace=False)\n            (q_proj): Linear(in_features=32, out_features=32, bias=False)\n            (kv_proj): Linear(in_features=32, out_features=64, bias=False)\n            (out_proj): Linear(in_features=32, out_features=32, bias=False)\n          )\n          (ff): FeedForward(\n            (w_1): Linear(in_features=32, out_features=128, bias=True)\n            (w_2): Linear(in_features=128, out_features=32, bias=True)\n            (dropout): Dropout(p=0.2, inplace=False)\n            (activation): GELU(approximate='none')\n          )\n          (attn_addnorm): AddNorm(\n            (dropout): Dropout(p=0.2, inplace=False)\n            (ln): LayerNorm((32,), eps=1e-05, elementwise_affine=True)\n          )\n          (ff_addnorm): AddNorm(\n            (dropout): Dropout(p=0.2, inplace=False)\n            (ln): LayerNorm((32,), eps=1e-05, elementwise_affine=True)\n          )\n        )\n        (transformer_block2): TransformerEncoder(\n          (attn): MultiHeadedAttention(\n            (dropout): Dropout(p=0.2, inplace=False)\n            (q_proj): Linear(in_features=32, out_features=32, bias=False)\n            (kv_proj): Linear(in_features=32, out_features=64, bias=False)\n            (out_proj): Linear(in_features=32, out_features=32, bias=False)\n          )\n          (ff): FeedForward(\n            (w_1): Linear(in_features=32, out_features=128, bias=True)\n            (w_2): Linear(in_features=128, out_features=32, bias=True)\n            (dropout): Dropout(p=0.2, inplace=False)\n            (activation): GELU(approximate='none')\n          )\n          (attn_addnorm): AddNorm(\n            (dropout): Dropout(p=0.2, inplace=False)\n            (ln): LayerNorm((32,), eps=1e-05, elementwise_affine=True)\n          )\n          (ff_addnorm): AddNorm(\n            (dropout): Dropout(p=0.2, inplace=False)\n            (ln): LayerNorm((32,), eps=1e-05, elementwise_affine=True)\n          )\n        )\n        (transformer_block3): TransformerEncoder(\n          (attn): MultiHeadedAttention(\n            (dropout): Dropout(p=0.2, inplace=False)\n            (q_proj): Linear(in_features=32, out_features=32, bias=False)\n            (kv_proj): Linear(in_features=32, out_features=64, bias=False)\n            (out_proj): Linear(in_features=32, out_features=32, bias=False)\n          )\n          (ff): FeedForward(\n            (w_1): Linear(in_features=32, out_features=128, bias=True)\n            (w_2): Linear(in_features=128, out_features=32, bias=True)\n            (dropout): Dropout(p=0.2, inplace=False)\n            (activation): GELU(approximate='none')\n          )\n          (attn_addnorm): AddNorm(\n            (dropout): Dropout(p=0.2, inplace=False)\n            (ln): LayerNorm((32,), eps=1e-05, elementwise_affine=True)\n          )\n          (ff_addnorm): AddNorm(\n            (dropout): Dropout(p=0.2, inplace=False)\n            (ln): LayerNorm((32,), eps=1e-05, elementwise_affine=True)\n          )\n        )\n      )\n    )\n    (1): Linear(in_features=384, out_features=1, bias=True)\n  )\n)</pre> In\u00a0[31]: Copied! <pre>tab_trainer = Trainer(\n    model=tab_model,\n    objective=\"binary\",\n    optimizers=torch.optim.AdamW(tab_model.parameters(), lr=0.001),\n    metrics=[Accuracy, Precision],\n)\n</pre> tab_trainer = Trainer(     model=tab_model,     objective=\"binary\",     optimizers=torch.optim.AdamW(tab_model.parameters(), 
…
tab_preprocessor.column_idx,     cat_embed_input=tab_preprocessor.cat_embed_input,     cat_embed_dropout=0.1,     continuous_cols=continuous_cols,     cont_norm_layer=\"layernorm\",     embed_continuous_method=\"standard\",     cont_embed_dim=8,     mlp_hidden_dims=[64, 32],     mlp_dropout=0.2,     mlp_activation=\"leaky_relu\", ) model = WideDeep(deeptabular=tab_mlp) In\u00a0[9]: Copied! <pre>model\n</pre> model Out[9]: <pre>WideDeep(\n  (deeptabular): Sequential(\n    (0): TabMlp(\n      (cat_embed): DiffSizeCatEmbeddings(\n        (embed_layers): ModuleDict(\n          (emb_layer_workclass): Embedding(10, 5, padding_idx=0)\n          (emb_layer_education): Embedding(17, 8, padding_idx=0)\n          (emb_layer_marital_status): Embedding(8, 5, padding_idx=0)\n          (emb_layer_occupation): Embedding(16, 7, padding_idx=0)\n          (emb_layer_relationship): Embedding(7, 4, padding_idx=0)\n          (emb_layer_race): Embedding(6, 4, padding_idx=0)\n          (emb_layer_gender): Embedding(3, 2, padding_idx=0)\n          (emb_layer_capital_gain): Embedding(122, 23, padding_idx=0)\n          (emb_layer_capital_loss): Embedding(97, 21, padding_idx=0)\n          (emb_layer_native_country): Embedding(43, 13, padding_idx=0)\n        )\n        (embedding_dropout): Dropout(p=0.1, inplace=False)\n      )\n      (cont_norm): LayerNorm((2,), eps=1e-05, elementwise_affine=True)\n      (cont_embed): ContEmbeddings(\n        INFO: [ContLinear = weight(n_cont_cols, embed_dim) + bias(n_cont_cols, embed_dim)]\n        (linear): ContLinear(n_cont_cols=2, embed_dim=8, embed_dropout=0.0)\n        (dropout): Dropout(p=0.0, inplace=False)\n      )\n      (encoder): MLP(\n        (mlp): Sequential(\n          (dense_layer_0): Sequential(\n            (0): Linear(in_features=108, out_features=64, bias=True)\n            (1): LeakyReLU(negative_slope=0.01, inplace=True)\n            (2): Dropout(p=0.2, inplace=False)\n          )\n          (dense_layer_1): Sequential(\n            (0): Linear(in_features=64, out_features=32, bias=True)\n            (1): LeakyReLU(negative_slope=0.01, inplace=True)\n            (2): Dropout(p=0.2, inplace=False)\n          )\n        )\n      )\n    )\n    (1): Linear(in_features=32, out_features=1, bias=True)\n  )\n)</pre> In\u00a0[10]: Copied! <pre>early_stopping = EarlyStopping()\nmodel_checkpoint = ModelCheckpoint(\n    filepath=\"tmp_dir/adult_tabmlp_model\",\n    save_best_only=True,\n    verbose=1,\n    max_save=1,\n)\n\ntrainer = Trainer(\n    model,\n    objective=\"binary\",\n    callbacks=[early_stopping, model_checkpoint],\n    metrics=[Accuracy],\n
…
 cat_embed_dropout=0.1,\n    continuous_cols=continuous_cols,\n    blocks_dims=[200, 200, 200],\n)\nmodel = WideDeep(wide=wide, deeptabular=tab_resnet)\n</pre> wide = Wide(input_dim=np.unique(X_wide).shape[0], pred_dim=1) tab_resnet = TabResnet(     column_idx=tab_preprocessor.column_idx,     cat_embed_input=tab_preprocessor.cat_embed_input,     cat_embed_dropout=0.1,     continuous_cols=continuous_cols,     blocks_dims=[200, 200, 200], ) model = WideDeep(wide=wide, deeptabular=tab_resnet) In\u00a0[17]: Copied! <pre>model\n</pre> model Out[17]: <pre>WideDeep(\n  (wide): Wide(\n    (wide_linear): Embedding(809, 1, padding_idx=0)\n  )\n  (deeptabular): Sequential(\n    (0): TabResnet(\n      (cat_embed): DiffSizeCatEmbeddings(\n        (embed_layers): ModuleDict(\n          (emb_layer_workclass): Embedding(10, 5, padding_idx=0)\n          (emb_layer_education): Embedding(17, 8, padding_idx=0)\n          (emb_layer_marital_status): Embedding(8, 5, padding_idx=0)\n          (emb_layer_occupation): Embedding(16, 7, padding_idx=0)\n          (emb_layer_relationship): Embedding(7, 4, padding_idx=0)\n          (emb_layer_race): Embedding(6, 4, padding_idx=0)\n          (emb_layer_gender): Embedding(3, 2, padding_idx=0)\n          (emb_layer_capital_gain): Embedding(124, 24, padding_idx=0)\n          (emb_layer_capital_loss): Embedding(100, 21, padding_idx=0)\n          (emb_layer_native_country): Embedding(43, 13, padding_idx=0)\n        )\n        (embedding_dropout): Dropout(p=0.1, inplace=False)\n      )\n      (cont_norm): Identity()\n      (encoder): DenseResnet(\n        (dense_resnet): Sequential(\n          (lin_inp): Linear(in_features=95, out_features=200, bias=False)\n          (bn_inp): BatchNorm1d(200, eps=1e-05, momentum=0.1, affine=True, track_running_stats=True)\n          (block_0): BasicBlock(\n            (lin1): Linear(in_features=200, out_features=200, bias=False)\n            (bn1): BatchNorm1d(200, eps=1e-05, momentum=0.1, affine=True, track_running_stats=True)\n            (leaky_relu): LeakyReLU(negative_slope=0.01, inplace=True)\n            (dp): Dropout(p=0.1, inplace=False)\n            (lin2): Linear(in_features=200, out_features=200, bias=False)\n            (bn2): BatchNorm1d(200, eps=1e-05, momentum=0.1, affine=True, track_running_stats=True)\n          )\n          (block_1): BasicBlock(\n            (lin1): Linear(in_features=200, out_features=200, bias=False)\n            (bn1): BatchNorm1d(200, eps=1e-05, momentum=0.1, affine=True, track_running_stats=True)\n            (leaky_relu): LeakyReLU(negative_slope=0.01, inplace=True)\n            (dp): Dropout(p=0.1, inplace=False)\n            (lin2): Linear(in_features=200, out_features=200, bias=False)\n            (bn2): BatchNorm1d(200, eps=1e-05, momentum=0.1, affine=True, track_running_stats=True)\n          )\n        )\n      )\n    )\n    (1): Linear(in_features=200, out_features=1, bias=True)\n  )\n)</pre> <p>let's first train as usual</p> In\u00a0[18]: Copied! <pre>trainer_3 = Trainer(model, objective=\"binary\", metrics=[Accuracy])\n</pre> trainer_3 = Trainer(model, objective=\"binary\", metrics=[Accuracy]) In\u00a0[19]: Copied! <pre>trainer_3.fit(\n    X_wide=X_wide, X_tab=X_tab, target=target, val_split=0.1, n_epochs=2, batch_size=256\n)\
…
l_3.deeptabular.named_children():     if (         n1 == \"0\"     ):  # 0 is the model component and 1 is always the prediction layer added by the `WideDeep` class         for n2, c2 in c1.named_children():             if n2 == \"encoder\":  # TabResnet                 for _, c3 in c2.named_children():                     for n4, c4 in c3.named_children():  # dense_resnet                         if \"block\" in n4:                             tab_deep_layers.append((n4, c4)) In\u00a0[27]: Copied! <pre>tab_deep_layers\n</pre> tab_deep_layers Out[27]: <pre>[('block_0',\n  BasicBlock(\n    (lin1): Linear(in_features=200, out_features=200, bias=False)\n    (bn1): BatchNorm1d(200, eps=1e-05, momentum=0.1, affine=True, track_running_stats=True)\n    (leaky_relu): LeakyReLU(negative_slope=0.01, inplace=True)\n    (dp): Dropout(p=0.1, inplace=False)\n    (lin2): Linear(in_features=200, out_features=200, bias=False)\n    (bn2): BatchNorm1d(200, eps=1e-05, momentum=0.1, affine=True, track_running_stats=True)\n  )),\n ('block_1',\n  BasicBlock(\n    (lin1): Linear(in_features=200, out_features=200, bias=False)\n    (bn1): BatchNorm1d(200, eps=1e-05, momentum=0.1, affine=True, track_running_stats=True)\n    (leaky_relu): LeakyReLU(negative_slope=0.01, inplace=True)\n    (dp): Dropout(p=0.1, inplace=False)\n    (lin2): Linear(in_features=200, out_features=200, bias=False)\n    (bn2): BatchNorm1d(200, eps=1e-05, momentum=0.1, affine=True, track_running_stats=True)\n  ))]</pre> <p>Now remember, we need to pass ONLY LAYERS (before I included the name for clarity) the layers in WARM UP ORDER, therefore:</p> In\u00a0[28]: Copied! <pre>tab_deep_layers = [el[1] for el in tab_deep_layers][::-1]\n</pre> tab_deep_layers = [el[1] for el in tab_deep_layers][::-1] In\u00a0[29]: Copied! <pre>tab_layers = [tab_lin_layer] + tab_deep_layers[::-1]\n</pre> tab_layers = [tab_lin_layer] + tab_deep_layers[::-1] In\u00a0[30]: Copied! <pre>tab_layers\n</pre> tab_layers Out[30]: <pre>[Linear(in_features=200, out_features=1, bias=True),\n BasicBlock(\n   (lin1): Linear(in_features=200, out_features=200, bias=False)\n   (bn1): BatchNorm1d(200, eps=1e-05, momentum=0.1, affine=True, track_running_stats=True)\n   (leaky_relu): LeakyReLU(negative_slope=0.01, inplace=True)\n   (dp): Dropout(p=0.1, inplace=False)\n   (lin2): Linear(in_features=200, out_features=200, bias=False)\n   (bn2): BatchNorm1d(200, eps=1e-05, momentum=0.1, affine=True, track_running_stats=True)\n ),\n BasicBlock(\n   (lin1): Linear(in_features=200, out_features=200, bias=False)\n   (bn1): BatchNorm1d(200, eps=1e-05, momentum=0.1, affine=True, track_running_stats=True)\n   (leaky_relu): LeakyReLU(negative_slope=0.01, inplace=True)\n   (dp): Dropout(p=0.1, inplace=False)\n   (lin2): Linear(in_features=200, out_features=200, bias=False)\n   (bn2): BatchNorm1d(200, eps=1e-05, momentum=0.1, affine=True, track_running_stats=True)\n )]</pre> <p>And now simply</p> In\u00a0[31]: Copied! <pre>trainer_4 = Trainer(model_3, objective=\"binary\", metrics=[Accuracy])\n</pre> trainer_4 = Trainer(model_3, objective=\"binary\", metrics=[Accuracy]) In\u00a0[32]: Copied! <pre>trainer_4.fit(\n    X_wide=X_wide,\n    X_tab=X_tab,\n    target=target,\n    val_split=0.1,\n
…
dden_dims=hidden_layers,\n    column_idx=tab_preprocessor.column_idx,\n    continuous_cols=tab_preprocessor.continuous_cols,\n)\nmodel = WideDeep(deeptabular=deeptabular)\nmodel\n</pre> deeptabular = TabMlp(     mlp_hidden_dims=hidden_layers,     column_idx=tab_preprocessor.column_idx,     continuous_cols=tab_preprocessor.continuous_cols, ) model = WideDeep(deeptabular=deeptabular) model Out[20]: <pre>WideDeep(\n  (deeptabular): Sequential(\n    (0): TabMlp(\n      (cont_norm): Identity()\n      (encoder): MLP(\n        (mlp): Sequential(\n          (dense_layer_0): Sequential(\n            (0): Linear(in_features=74, out_features=148, bias=True)\n            (1): ReLU(inplace=True)\n            (2): Dropout(p=0.1, inplace=False)\n          )\n          (dense_layer_1): Sequential(\n            (0): Linear(in_features=148, out_features=118, bias=True)\n            (1): ReLU(inplace=True)\n            (2): Dropout(p=0.1, inplace=False)\n          )\n          (dense_layer_2): Sequential(\n            (0): Linear(in_features=118, out_features=89, bias=True)\n            (1): ReLU(inplace=True)\n            (2): Dropout(p=0.1, inplace=False)\n          )\n          (dense_layer_3): Sequential(\n            (0): Linear(in_features=89, out_features=59, bias=True)\n            (1): ReLU(inplace=True)\n            (2): Dropout(p=0.1, inplace=False)\n          )\n          (dense_layer_4): Sequential(\n            (0): Linear(in_features=59, out_features=30, bias=True)\n            (1): ReLU(inplace=True)\n            (2): Dropout(p=0.1, inplace=False)\n          )\n        )\n      )\n    )\n    (1): Linear(in_features=30, out_features=1, bias=True)\n  )\n)</pre> In\u00a0[24]: Copied! <pre># Metrics from torchmetrics\naccuracy = Accuracy_torchmetrics(average=None, num_classes=1, task=\"binary\")\nprecision = Precision_torchmetrics(average=\"micro\", num_classes=1, task=\"binary\")\nf1 = F1_torchmetrics(average=None, num_classes=1, task=\"binary\")\nrecall = Recall_torchmetrics(average=None, num_class
…
    cat_embed_input=tab_preprocessor.cat_embed_input,\n    continuous_cols=tab_preprocessor.continuous_cols,\n)\n</pre> # We define a model that will act as the encoder in the encoder/decoder # architecture. This could be any of: TabMlp, TabResnet or TabNet tab_mlp = TabMlp(     column_idx=tab_preprocessor.column_idx,     cat_embed_input=tab_preprocessor.cat_embed_input,     continuous_cols=tab_preprocessor.continuous_cols, ) In\u00a0[9]: Copied! <pre>tab_mlp\n</pre> tab_mlp Out[9]: <pre>TabMlp(\n  (cat_embed): DiffSizeCatEmbeddings(\n    (embed_layers): ModuleDict(\n      (emb_layer_workclass): Embedding(10, 5, padding_idx=0)\n      (emb_layer_education): Embedding(17, 8, padding_idx=0)\n      (emb_layer_marital_status): Embedding(8, 5, padding_idx=0)\n      (emb_layer_occupation): Embedding(16, 7, padding_idx=0)\n      (emb_layer_relationship): Embedding(7, 4, padding_idx=0)\n      (emb_layer_race): Embedding(6, 4, padding_idx=0)\n      (emb_layer_gender): Embedding(3, 2, padding_idx=0)\n      (emb_layer_capital_gain): Embedding(124, 24, padding_idx=0)\n      (emb_layer_capital_loss): Embedding(98, 21, padding_idx=0)\n      (emb_layer_native_country): Embedding(42, 13, padding_idx=0)\n    )\n    (embedding_dropout): Dropout(p=0.0, inplace=False)\n  )\n  (cont_norm): Identity()\n  (encoder): MLP(\n    (mlp): Sequential(\n      (dense_layer_0): Sequential(\n        (0): Linear(in_features=95, out_features=200, bias=True)\n        (1): ReLU(inplace=True)\n        (2): Dropout(p=0.1, inplace=False)\n      )\n      (dense_layer_1): Sequential(\n        (0): Linear(in_features=200, out_features=100, bias=True)\n        (1): ReLU(inplace=True)\n        (2): Dropout(p=0.1, inplace=False)\n      )\n    )\n  )\n)</pre> In\u00a0[10]: Copied! <pre># If we do not pass a custom decoder, which is perfectly possible via the\n# decoder param,  the EncoderDecoderTrainer will automatically build a\n# decoder which will be the 'mirror' image of the encoder\nencoder_decode
…
sible via the # decoder param,  the EncoderDecoderTrainer will automatically build a # decoder which will be the 'mirror' image of the encoder encoder_decoder_trainer = EncoderDecoderTrainer(encoder=tab_mlp) In\u00a0[11]: Copied! <pre># let's have a look to the encoder_decoder_model (aka ed_model)\nencoder_decoder_trainer.ed_model\n</pre> # let's have a look to the encoder_decoder_model (aka ed_model) encoder_decoder_trainer.ed_model Out[11]: <pre>EncoderDecoderModel(\n  (encoder): TabMlp(\n    (cat_embed): DiffSizeCatEmbeddings(\n      (embed_layers): ModuleDict(\n        (emb_layer_workclass): Embedding(10, 5, padding_idx=0)\n        (emb_layer_education): Embedding(17, 8, padding_idx=0)\n        (emb_layer_marital_status): Embedding(8, 5, padding_idx=0)\n        (emb_layer_occupation): Embedding(16, 7, padding_idx=0)\n        (emb_layer_relationship): Embedding(7, 4, padding_idx=0)\n        (emb_layer_race): Embedding(6, 4, padding_idx=0)\n        (emb_layer_gender): Embedding(3, 2, padding_idx=0)\n        (emb_layer_capital_gain): Embedding(124, 24, padding_idx=0)\n        (emb_layer_capital_loss): Embedding(98, 21, padding_idx=0)\n        (emb_layer_native_country): Embedding(42, 13, padding_idx=0)\n      )\n      (embedding_dropout): Dropout(p=0.0, inplace=False)\n    )\n    (cont_norm): Identity()\n    (encoder): MLP(\n      (mlp): Sequential(\n        (dense_layer_0): Sequential(\n          (0): Linear(in_features=95, out_features=200, bias=True)\n          (1): ReLU(inplace=True)\n          (2): Dropout(p=0.1, inplace=False)\n        )\n        (dense_layer_1): Sequential(\n          (0): Linear(in_features=200, out_features=100, bias=True)\n          (1): ReLU(inplace=True)\n          (2): Dropout(p=0.1, inplace=False)\n        )\n      )\n    )\n  )\n  (decoder): TabMlpDecoder(\n    (decoder): MLP(\n      (mlp): Sequential(\n        (dense_layer_0): Sequential(\n          (0): Linear(in_features=100, out_features=200, bias=True)\n          (1): ReLU(inplace=True)\n          (2): Dropout(p=0.1, inplace=False)\n        )\n        (dense_layer_1): Sequential(\n          (0): Linear(in_features=200, out_features=95, bias=True)\n          (1): ReLU(inplace=True)\n          (2): Dropout(p=0.1, inplace=False)\n        )\n      )\n    )\n  )\n  (masker): RandomObfuscator()\n)</pre> <p>Ignoring the <code>masker</code>, which just...well...masks, the <code>ed_model</code> consists of:</p> <ol> <li>An encoder model that is a <code>TabMlp</code> model that is in itself comprised by a
…
=tab_preprocessor.column_idx,\n    cat_embed_input=tab_preprocessor.cat_embed_input,\n    continuous_cols=continuous_cols,\n    blocks_dims=[200, 100, 100],\n)\n</pre> resnet_encoder = TabResnetEncoder(     column_idx=tab_preprocessor.column_idx,     cat_embed_input=tab_preprocessor.cat_embed_input,     continuous_cols=continuous_cols,     blocks_dims=[200, 100, 100], ) <p>let's have a look to the model</p> In\u00a0[20]: Copied! <pre>resnet_encoder\n</pre> resnet_encoder Out[20]: <pre>TabResnet(\n  (cat_embed): DiffSizeCatEmbeddings(\n    (embed_layers): ModuleDict(\n      (emb_layer_workclass): Embedding(10, 5, padding_idx=0)\n      (emb_layer_education): Embedding(17, 8, padding_idx=0)\n      (emb_layer_marital_status): Embedding(8, 5, padding_idx=0)\n      (emb_layer_occupation): Embedding(16, 7, padding_idx=0)\n      (emb_layer_relationship): Embedding(7, 4, padding_idx=0)\n      (emb_layer_race): Embedding(6, 4, padding_idx=0)\n      (emb_layer_gender): Embedding(3, 2, padding_idx=0)\n      (emb_layer_capital_gain): Embedding(124, 24, padding_idx=0)\n      (emb_layer_capital_loss): Embedding(98, 21, padding_idx=0)\n      (emb_layer_native_country): Embedding(42, 13, padding_idx=0)\n    )\n    (embedding_dropout): Dropout(p=0.0, inplace=False)\n  )\n  (cont_norm): Identity()\n  (encoder): DenseResnet(\n    (dense_resnet): Sequential(\n      (lin_inp): Linear(in_features=95, out_features=200, bias=False)\n      (bn_inp): BatchNorm1d(200, eps=1e-05, momentum=0.1, affine=True, track_running_stats=True)\n      (block_0): BasicBlock(\n        (resize): Sequential(\n          (0): Linear(in_features=200, out_features=100, bias=False)\n          (1): BatchNorm1d(100, eps=1e-05, momentum=0.1, affine=True, track_running_stats=True)\n        )\n        (lin1): Linear(in_features=200, out_features=100, bias=False)\n        (bn1): BatchNorm1d(100, eps=1e-05, momentum=0.1, affine=True, track_running_stats=True)\n        (leaky_relu): LeakyReLU(negative_slope=0.01, inplace=True)\n        (dp): Dropout(p=0.1, inplace=False)\n        (lin2): Linear(in_features=100, out_features=100, bias=False)\n        (bn2): BatchNorm1d(100, eps=1e-05, momentum=0.1, affine=True, track_running_stats=True)\n      )\n      (block_1): BasicBlock(\n        (lin1): Linear(in_features=100, out_features=100, bias=False)\n        (bn1): BatchNorm1d(100, eps=1e-05, momentum=0.1, affine=True, track_running_stats=True)\n        (leaky_relu): LeakyReLU(negative_slope=0.01, inplace=True)\n        (dp): Dropout(p=0.1, inplace=False)\n        (lin2): Linear(in_features=100, out_features=100, bias=False)\n        (bn2): BatchNorm1d(100, eps=1e-05, momentum=0.1, affine=True, track_running_stats=True)\n      )\n    )\n  )\n)</pre> <p>As we can see, the tensor we are trying to reconstruct, the embeddings, is of size <code>94</code> (this number is stored in the attribute: <code>esnet_encoder.cat_and_cont_embed.output_dim</code>), with that information we could build or own decoder as:</p> In\u00a0[21]: Copied! <pre># for all possible params see the docs\nresnet_decoder = TabResnetDecoder(\n    embed_dim=resnet_encoder.cat_out_dim + resnet_encoder.cont_out_dim,\n    blocks_dims=[100, 100, 200],\n)\n</pre> # for all possible params see the docs resnet_decoder = TabResnetDecoder(     embed_dim=resnet_encoder.cat_out_dim + resnet_encoder.cont_out_dim,     blocks_dims=[100, 100, 200], ) In\u00a0[22]: Copied! <pre>resnet_decoder\n</pre> resnet_decoder Out[22]: <pre>TabResnetDecoder(\n  (decoder): DenseResnet(\n    (dense_resnet): Sequential(\n      (block_0): BasicBlock(\n        (lin1): Linear(in_features=100, out_features=100, bias=False)\n        (bn1): BatchNorm1d(100, eps=1e-05, momentum=0.1, affine=True, track_running_stats=True)\n        (leaky_relu): LeakyReLU(negative_slope=0.01, inplace=True)\n        (dp): Dropout(p=0.1, inplace=False)\n        (lin2): Linear(in_features=100, out_features=100, bias=False)\n        (bn2): BatchNorm1d(100, eps=1e-05, momentum=0.1, affine=True, track_running_stats=True)\n      )\n      (block_1): BasicBlock(\n        (resize): Sequential(\n          (0): Linear(in_features=100, out_features=200, bias=False)\n          (1): BatchNorm1d(200, eps=1e-05, momentum=0.1, affine=True, track_running_stats=True)\n        )\n        (lin1): Linear(in_features=100, out_features=200, bias=False)\n        (bn1): BatchNorm1d(200, eps=1e-05, momentum=0.1, affine=True, track_running_stats=True)\n        (leaky_relu): LeakyReLU(negative_slope=0.01, inplace=True)\n        (dp): Dropout(p=0.1, inplace=False)\n        (lin2): Linear(in_features=200, out_features=200, bias=False)\n        (bn2): BatchNorm1d(200, eps=1e-05, momentum=0.1, affine=True, track_running_stats=True)\n      )\n    )\n  )\n  (reconstruction_layer): Linear(in_features=200, out_features=95, bias=False)\n)</pre> <p>and now:</p> In\u00a0[23]: Copied! <pre>ec_trainer = EncoderDecoderTrainer(\n    encoder=resnet_encoder,\n    decoder=resnet_decoder,\n    masked_prob=0.2,\n)\nec_trainer.pretrain(X_tab, n_epochs=5, batch_size=256)\n</pre> ec_trainer = EncoderDecoderTrainer(     encoder=resnet_encoder,     decoder=resnet_decoder,     masked_prob=0.2, ) ec_t
…
 you don't have full control of the loaded file. Please open an issue on GitHub for any issues related to this experimental feature.\n  contrastive_denoising_model = torch.load(\n</pre> <p>NOW, AND THIS IS IMPORTANT! We have loaded the entire contrastive, denoising model. To proceed to the supervised training we ONLY need the attention-based model, which is the 'model' attribute of the trainer, let's have a look</p> In\u00a0[7]: Copied! <pre>contrastive_denoising_model.model\n</pre> contrastive_denoising_model.model Out[7]: <pre>FTTransformer(\n  (cat_embed): SameSizeCatEmbeddings(\n    (embed): Embedding(322, 32, padding_idx=0)\n    (dropout): Dropout(p=0.0, inplace=False)\n  )\n  (cont_norm): Identity()\n  (cont_embed): ContEmbeddings(\n    INFO: [ContLinear = weight(n_cont_cols, embed_dim) + bias(n_cont_cols, embed_dim)]\n    (linear): ContLinear(n_cont_cols=2, embed_dim=32, embed_dropout=0.0)\n    (dropout): Dropout(p=0.0, inplace=False)\n  )\n  (encoder): Sequential(\n    (fttransformer_block0): FTTransformerEncoder(\n      (attn): LinearAttentionLinformer(\n        (dropout): Dropout(p=0.2, inplace=False)\n        (qkv_proj): Linear(in_features=32, out_features=96, bias=False)\n        (out_proj): Linear(in_features=32, out_features=32, bias=False)\n      )\n      (ff): FeedForward(\n        (w_1): Linear(in_features=32, out_features=84, bias=True)\n        (w_2): Linear(in_features=42, out_features=32, bias=True)\n        (dropout): Dropout(p=0.1, inplace=False)\n        (activation): REGLU()\n      )\n      (attn_normadd): NormAdd(\n        (dropout): Dropout(p=0.2, inplace=False)\n        (ln): LayerNorm((32,), eps=1e-05, elementwise_affine=True)\n      )\n      (ff_normadd): NormAdd(\n        (dropout): Dropout(p=0.1, inplace=False)\n        (ln): LayerNorm((32,), eps=1e-05, elementwise_affine=True)\n      )\n    )\n    (fttransformer_block1): FTTransformerEncoder(\n      (attn): LinearAttentionLinformer(\n        (dropout): Dropout(p=0.2, inplace=False)\n        (qkv_proj): Linear(in_features=32, out_features=96, bias=False)\n        (out_proj): Linear(in_features=32, out_features=32, bias=False)\n      )\n      (ff): FeedForward(\n        (w_1): Linear(in_features=32, out_features=84, bias=True)\n        (w_2): Linear(in_features=42, out_features=32, bias=True)\n        (dropout): Dropout(p=0.1, inplace=False)\n        (activation): REGLU()\n      )\n      (attn_normadd): NormAdd(\n        (dropout): Dropout(p=0.2, inplace=False)\n        (ln): LayerNorm((32,), eps=1e-05, elementwise_affine=True)\n      )\n      (ff_normadd): NormAdd(\n        (dropout): Dropout(p=0.1, inplace=False)\n        (ln): LayerNorm((32,), eps=1e-05, elementwise_affine=True)\n      )\n    )\n    (fttransformer_block2): FTTransformerEncoder(\n      (attn): LinearAttentionLinformer(\n        (dropout): Dropout(p=0.2, inplace=False)\n        (qkv_proj): Linear(in_features=32, out_features=96, bias=False)\n        (out_proj): Linear(in_features=32, out_features=32, bias=False)\n      )\n      (ff): FeedForward(\n        (w_1): Linear(in_features=32, out_features=84, bias=True)\n        (w_2): Linear(in_features=42, out_features=32, bias=True)\n        (dropout): Dropout(p=0.1, inplace=False)\n        (activation): REGLU()\n      )\n      (attn_normadd): NormAdd(\n        (dropout): Dropout(p=0.2, inplace=False)\n        (ln): LayerNorm((32,), eps=1e-05, elementwise_affine=True)\n      )\n      (ff_normadd): NormAdd(\n        (dropout): Dropout(p=0.1, inplace=False)\n        (ln): LayerNorm((32,), eps=1e-05, elementwise_affine=True)\n      )\n    )\n  )\n)</pre> In\u00a0[8]: Copied! <pre>pretrained_model = contrastive_denoising_model.model\n</pre> pretrained_model = contrastive_denoising_model.model In\u00a0[9]: Copied! <pre># and as always, ANY supervised model in this library has to go throuth the WideDeep class:\nmodel = WideDeep(deeptabular=pretrained_model)\ntrainer = Trainer(mo
…
# ?TabMlp\n</pre> # ?TabMlp In\u00a0[42]: Copied! <pre>tab_model = TabMlp(\n    column_idx=tab_preprocessor.column_idx,\n    cat_embed_input=tab_preprocessor.cat_embed_input,\n    mlp_hidden_dims=[100, 50],\n)\n</pre> tab_model = TabMlp(     column_idx=tab_preprocessor.column_idx,     cat_embed_input=tab_preprocessor.cat_embed_input,     mlp_hidden_dims=[100, 50], ) In\u00a0[43]: Copied! <pre>tab_model\n</pre> tab_model Out[43]: <pre>TabMlp(\n  (cat_and_cont_embed): DiffSizeCatAndContEmbeddings(\n    (cat_embed): DiffSizeCatEmbeddings(\n      (embed_layers): ModuleDict(\n        (emb_layer_age): Embedding(78, 18, padding_idx=0)\n        (emb_layer_division_name): Embedding(5, 3, padding_idx=0)\n        (emb_layer_department_name): Embedding(8, 5, padding_idx=0)\n        (emb_layer_class_name): Embedding(22, 9, padding_idx=0)\n      )\n      (embedding_dropout): Dropout(p=0.1, inplace=False)\n    )\n  )\n  (encoder): MLP(\n    (mlp): Sequential(\n      (dense_layer_0): Sequential(\n        (0): Dropout(p=0.1, inplace=False)\n        (1): Linear(in_features=35, out_features=100, bias=True)\n        (2): ReLU(inplace=True)\n      )\n      (dense_layer_1): Sequential(\n        (0): Dropout(p=0.1, inplace=False)\n        (1): Linear(in_features=100, out_features=50, bias=True)\n        (2): ReLU(inplace=True)\n      )\n    )\n  )\n)</pre> In\u00a0[44]: Copied! <pre>text_model = BasicRNN(\n    vocab_size=len(text_preprocessor.vocab.itos),\n    embed_dim=300,\n    hidden_dim=64,\n    n_layers=3,\n    rnn_dropout=0.2,\n    head_hidden_dims=[32],\n)\n</pre> text_model = BasicRNN(     vocab_size=len(text_preprocessor.vocab.itos), 
…
    n_layers=3,     rnn_dropout=0.2,     head_hidden_dims=[32], ) In\u00a0[45]: Copied! <pre>wd_tab_and_text_model = WideDeep(deeptabular=tab_model, deeptext=text_model, pred_dim=4)\n</pre> wd_tab_and_text_model = WideDeep(deeptabular=tab_model, deeptext=text_model, pred_dim=4) In\u00a0[46]: Copied! <pre>wd_tab_and_text_model\n</pre> wd_tab_and_text_model Out[46]: <pre>WideDeep(\n  (deeptabular): Sequential(\n    (0): TabMlp(\n      (cat_and_cont_embed): DiffSizeCatAndContEmbeddings(\n        (cat_embed): DiffSizeCatEmbeddings(\n          (embed_layers): ModuleDict(\n            (emb_layer_age): Embedding(78, 18, padding_idx=0)\n            (emb_layer_division_name): Embedding(5, 3, padding_idx=0)\n            (emb_layer_department_name): Embedding(8, 5, padding_idx=0)\n            (emb_layer_class_name): Embedding(22, 9, padding_idx=0)\n          )\n          (embedding_dropout): Dropout(p=0.1, inplace=False)\n        )\n      )\n      (encoder): MLP(\n        (mlp): Sequential(\n          (dense_layer_0): Sequential(\n            (0): Dropout(p=0.1, inplace=False)\n            (1): Linear(in_features=35, out_features=100, bias=True)\n            (2): ReLU(inplace=True)\n          )\n          (dense_layer_1): Sequential(\n            (0): Dropout(p=0.1, inplace=False)\n            (1): Linear(in_features=100, out_features=50, bias=True)\n            (2): ReLU(inplace=True)\n          )\n        )\n      )\n    )\n    (1): Linear(in_features=50, out_features=4, bias=True)\n  )\n  (deeptext): Sequential(\n    (0): BasicRNN(\n      (word_embed): Embedding(4328, 300, padding_idx=1)\n      (rnn): LSTM(300, 64, num_layers=3, batch_first=True, dropout=0.2)\n      (rnn_mlp): MLP(\n        (mlp): Sequential(\n          (dense_layer_0): Sequential(\n            (0): Linear(in_features=64, out_features=32, bias=True)\n            (1): ReLU(inplace=True)\n          )\n        )\n      )\n    )\n    (1): Linear(in_features=32, out_features=4, bias=True)\n  )\n)</pre> In\u00a0[47]: Copied! <pre>tab_and_text_trainer = Trainer(\n    wd_tab_and_text_model,\n    objective=\"multiclass\",\n    metrics=[Accuracy, F1Score(average=True)],\n    num_workers=0,  # As in the case of the tokenizer, in notebook I need to set this to 0 for the Trainer to work\n)\n</pre> tab_and_text_trainer = Trainer(     wd_tab_and_tex
…
int of a model trained on another task or with another architecture (e.g. initializing a BertForSequenceClassification model from a BertForPreTraining model).\n- This IS NOT expected if you are initializing DistilBertModel from the checkpoint of a model that you expect to be exactly identical (initializing a BertForSequenceClassification model from a BertForSequenceClassification model).\n</pre> In\u00a0[56]: Copied! <pre>wd_bert_model\n</pre> wd_bert_model Out[56]: <pre>WideDeep(\n  (deeptext): BertModel(\n    (bert): DistilBertModel(\n      (embeddings): Embeddings(\n        (word_embeddings): Embedding(30522, 768, padding_idx=0)\n        (position_embeddings): Embedding(512, 768)\n        (LayerNorm): LayerNorm((768,), eps=1e-12, elementwise_affine=True)\n        (dropout): Dropout(p=0.1, inplace=False)\n      )\n      (transformer): Transformer(\n        (layer): ModuleList(\n          (0): TransformerBlock(\n            (attention): MultiHeadSelfAttention(\n              (dropout): Dropout(p=0.1, inplace=False)\n              (q_lin): Linear(in_features=768, out_features=768, bias=True)\n              (k_lin): Linear(in_features=768, out_features=768, bias=True)\n              (v_lin): Linear(in_features=768, out_features=768, bias=True)\n              (out_lin): Linear(in_features=768, out_features=768, bias=True)\n            )\n            (sa_layer_norm): LayerNorm((768,), eps=1e-12, elementwise_affine=True)\n            (ffn): FFN(\n              (dropout): Dropout(p=0.1, inplace=False)\n              (lin1): Linear(in_features=768, out_features=3072, bias=True)\n              (lin2): Linear(in_features=3072, out_features=768, bias=True)\n              (activation): GELUActivation()\n            )\n            (output_layer_norm): LayerNorm((768,), eps=1e-12, elementwise_affine=True)\n          )\n          (1): TransformerBlock(\n            (attention): MultiHeadSelfAttention(\n              (dropout): Dropout(p=0.1, inplace=False)\n              (q_lin): Linear(in_features=768, out_features=768, bias=True)\n              (k_lin): Linear(in_features=768, out_features=768, bias=True)\n              (v_lin): Linear(in_features=768, out_features=768, bias=True)\n              (out_lin): Linear(in_features=768, out_features=768, bias=True)\n            )\n            (sa_layer_norm): LayerNorm((768,), eps=1e-12, elementwise_affine=True)\n            (ffn): FFN(\n              (dropout): Dropout(p=0.1, inplace=False)\n              (lin1): Linear(in_features=768, out_features=3072, bias=True)\n              (lin2): Linear(in_features=3072, out_features=768, bias=True)\n              (activation): GELUActivation()\n            )\n            (output_layer_norm): LayerNorm((768,), eps=1e-12, elementwise_affine=True)\n          )\n          (2): TransformerBlock(\n            (attention): MultiHeadSelfAttention(\n              (dropout): Dropout(p=0.1, inplace=False)\n              (q_lin): Linear(in_features=768, out_features=768, bias=True)\n              (k_lin): Linear(in_features=768, out_features=768, bias=True)\n              (v_lin): Linear(in_features=768, out_features=768, bias=True)\n              (out_lin): Linear(in_features=768, out_features=768, bias=True)\n            )\n            (sa_layer_norm): LayerNorm((768,), eps=1e-12, elementwise_affine=True)\n            (ffn): FFN(\n              (dropout): Dropout(p=0.1, inplace=False)\n              (lin1): Linear(in_features=768, out_features=3072, bias=True)\n              (lin2): Linear(in_features=3072, out_features=768, bias=True)\n              (activation): GELUActivation()\n            )\n            (output_layer_norm): LayerNorm((768,), eps=1e-12, elementwise_affine=True)\n          )\n          (3): TransformerBlock(\n            (attention): MultiHeadSelfAttention(\n              (dropout): Dropout(p=0.1, inplace=False)\n              (q_lin): Linear(in_features=768, out_features=768, bias=True)\n              (k_lin): Linear(in_features=768, out_features=768, bias=True)\n              (v_lin): Linear(in_features=768, out_features=768, bias=True)\n              (out_lin): Linear(in_features=768, out_features=768, bias=True)\n            )\n            (sa_layer_norm): LayerNorm((768,), eps=1e-12, elementwise_affine=True)\n            (ffn): FFN(\n              (dropout): Dropout(p=0.1, inplace=False)\n              (lin1): Linear(in_features=768, out_features=3072, bias=True)\n              (lin2): Linear(in_features=3072, out_features=768, bias=True)\n              (activation): GELUActivation()\n            )\n            (output_layer_norm): LayerNorm((768,), eps=1e-12, elementwise_affine=True)\n          )\n          (4): TransformerBlock(\n            (attention): MultiHeadSelfAttention(\n              (dropout): Dropout(p=0.1, inplace=False)\n              (q_lin): Linear(in_features=768, out_features=768, bias=True)\n              (k_lin): Linear(in_features=768, out_features=768, bias=True)\n              (v_lin): Linear(in_features=768, out_features=768, bias=True)\n              (out_lin): Linear(in_features=768, out_features=768, bias=True)\n            )\n            (sa_layer_norm): LayerNorm((768,), eps=1e-12, elementwise_affine=True)\n            (ffn): FFN(\n              (dropout): Dropout(p=0.1, inplace=False)\n              (lin1): Linear(in_features=768, out_features=3072, bias=True)\n              (lin2): Linear(in_features=3072, out_features=768, bias=True)\n              (activation): GELUActivation()\n            )\n            (output_layer_norm): LayerNorm((768,), eps=1e-12, elementwise_affine=True)\n          )\n          (5): TransformerBlock(\n            (attention): MultiHeadSelfAttention(\n              (dropout): Dropout(p=0.1, inplace=False)\n              (q_lin): Linear(in_features=768, out_features=768, bias=True)\n              (k_lin): Linear(in_features=768, out_features=768, bias=True)\n              (v_lin): Linear(in_features=768, out_features=768, bias=True)\n              (out_lin): Linear(in_features=768, out_features=768, bias=True)\n            )\n            (sa_layer_norm): LayerNorm((768,), eps=1e-12, elementwise_affine=True)\n            (ffn): FFN(\n              (dropout): Dropout(p=0.1, inplace=False)\n              (lin1): Linear(in_features=768, out_features=3072, bias=True)\n              (lin2): Linear(in_features=3072, out_features=768, bias=True)\n              (activation): GELUActivation()\n            )\n            (output_layer_norm): LayerNorm((768,), eps=1e-12, elementwise_affine=True)\n          )\n        )\n      )\n    )\n  )\n  (deephead): Sequential(\n    (0): MLP(\n      (mlp): Sequential(\n        (dense_layer_0): Sequential(\n          (0): Linear(in_features=768, out_features=256, bias=True)\n          (1): ReLU(inplace=True)\n          (2): Dropout(p=0.1, inplace=False)\n        )\n        (dense_layer_1): Sequential(\n          (0): Linear(in_features=256, out_features=128, bias=True)\n          (1): ReLU(inplace=True)\n          (2): Dropout(p=0.1, inplace=False)\n        )\n        (dense_layer_2): Sequential(\n          (0): Linear(in_features=128, out_features=64, bias=True)\n          (1): ReLU(inplace=True)\n          (2): Dropout(p=0.1, inplace=False)\n        )\n      )\n    )\n    (1): Linear(in_features=64, out_features=4, bias=True)\n  )\n)</pre> In\u00a0[57]: Copied! <pre>wd_bert_trainer = Trainer(\n    wd_bert_model,\n    objective=\"multiclass\",\n    metrics=[Accuracy, F1Score(average=True)],\n    num_workers=0,  # As in the case of the tokenizer, in notebook I need to set this to 0 for the Trainer to work\n)\n\nwd_bert_trainer.fit(\n    X_text=X_bert_tr,\n    target=train.rating
…
ut,\n    continuous_cols=tab_preprocessor.continuous_cols,\n    cont_norm_layer=None,\n    mlp_hidden_dims=[1024, 512, 256],\n    mlp_activation=\"relu\",\n)\n</pre> tab_mlp = TabMlp(     column_idx=tab_preprocessor.column_idx,     cat_embed_input=tab_preprocessor.cat_embed_input,     continuous_cols=tab_preprocessor.continuous_cols,     cont_norm_layer=None,     mlp_hidden_dims=[1024, 512, 256],     mlp_activation=\"relu\", ) In\u00a0[38]: Copied! <pre>tab_mlp\n</pre> tab_mlp Out[38]: <pre>TabMlp(\n  (cat_embed): DiffSizeCatEmbeddings(\n    (embed_layers): ModuleDict(\n      (emb_layer_gender): Embedding(3, 2, padding_idx=0)\n      (emb_layer_occupation): Embedding(22, 9, padding_idx=0)\n      (emb_layer_zip_code): Embedding(648, 60, padding_idx=0)\n    )\n    (embedding_dropout): Dropout(p=0.0, inplace=False)\n  )\n  (cont_norm): Identity()\n  (encoder): MLP(\n    (mlp): Sequential(\n      (dense_layer_0): Sequential(\n        (0): Linear(in_features=111, out_features=1024, bias=True)\n        (1): ReLU(inplace=True)\n        (2): Dropout(p=0.1, inplace=False)\n      )\n      (dense_layer_1): Sequential(\n        (0): Linear(in_features=1024, out_features=512, bias=True)\n        (1): ReLU(inplace=True)\n        (2): Dropout(p=0.1, inplace=False)\n      )\n      (dense_layer_2): Sequential(\n        (0): Linear(in_features=512, out_features=256, bias=True)\n        (1): ReLU(inplace=True)\n        (2): Dropout(p=0.1, inplace=False)\n      )\n    )\n  )\n)</pre> <p>Finally, we simply wrap up all models with the <code>WideDeep</code> 'collector' class and we are ready to train.</p> In\u00a0[39]: Copied! <pre>wide_deep_model = WideDeep(\n    wide=wide, deeptabular=tab_mlp, deeptext=simple_embed, pred_dim=max_movie_index + 1\n)\n</pre> wide_deep_model = WideDeep(     wide=wide, deeptabular=tab_mlp, deeptext=simple_embed, pred_dim=max_movie_index + 1 ) In\u00a0[40]: Copied! <pre>wide_deep_model\n</pre> wide_deep_model Out[40]: <pre>WideDeep(\n  (wide): Wide(\n    (wide_linear): Linear(in_features=1683, out_features=1683, bias=True)\n  )\n  (deeptabular): Sequential(\n    (0): TabMlp(\n      (cat_embed): DiffSizeCatEmbeddings(\n        (embed_layers): ModuleDict(\n          (emb_layer_gender): Embedding(3, 2, padding_idx=0)\n          (emb_layer_occupation): Embedding(22, 9, padding_idx=0)\n          (emb_layer_zip_code): Embedding(648, 60, padding_idx=0)\n        )\n        (embedding_dropout): Dropout(p=0.0, inplace=False)\n      )\n      (cont_norm): Identity()\n      (encoder): MLP(\n        (mlp): Sequential(\n          (dense_layer_0): Sequential(\n            (0): Linear(in_features=111, out_features=1024, bias=True)\n            (1): ReLU(inplace=True)\n            (2): Dropout(p=0.1, inplace=False)\n          )\n          (dense_layer_1): Sequential(\n            (0): Linear(in_features=1024, out_features=512, bias=True)\n            (1): ReLU(inplace=True)\n            (2): Dropout(p=0.1, inplace=False)\n          )\n          (dense_layer_2): Sequential(\n            (0): Linear(in_features=512, out_features=256, bias=True)\n            (1): ReLU(inplace=True)\n            (2): Dropout(p=0.1, inplace=False)\n          )\n        )\n      )\n    )\n    (1): Linear(in_features=256, out_features=1683, bias=True)\n  )\n  (deeptext): Sequential(\n    (0): SimpleEmbed(\n      (embed): Embedding(1683, 16, padding_idx=0)\n    )\n    (1): Linear(in_features=16, out_features=1683, bias=True)\n  )\n)</pre> <p>Note that the main difference between this wide and deep model and the Wide and Deep model in the Kaggle notebook is that in that notebook, the author concatenates the embedings and the tabular features, then passes this concatenation through a stack of linear + Relu layers with a final output dim of 256. Then concatenates this output 
…
     mlp_hidden_dims=[1024, 512, 256],     mlp_activation=\"relu\", )  # plenty of options here, see the docs transformer = Transformer(     vocab_size=max_movie_index + 1,     embed_dim=32,     n_heads=2,     n_blocks=2,     seq_length=maxlen, )  wide_deep_model = WideDeep(     deeptabular=tab_mlp, deeptext=transformer, pred_dim=max_movie_index + 1 ) In\u00a0[8]: Copied! <pre>wide_deep_model\n</pre> wide_deep_model Out[8]: <pre>WideDeep(\n  (deeptabular): Sequential(\n    (0): TabMlp(\n      (cat_embed): DiffSizeCatEmbeddings(\n        (embed_layers): ModuleDict(\n          (emb_layer_user_id): Embedding(749, 65, padding_idx=0)\n          (emb_layer_movie_id): Embedding(1612, 100, padding_idx=0)\n          (emb_layer_rating): Embedding(6, 4, padding_idx=0)\n        )\n        (embedding_dropout): Dropout(p=0.0, inplace=False)\n      )\n      (encoder): MLP(\n        (mlp): Sequential(\n          (dense_layer_0): Sequential(\n            (0): Linear(in_features=169, out_features=1024, bias=True)\n            (1): ReLU(inplace=True)\n            (2): Dropout(p=0.1, inplace=False)\n          )\n          (dense_layer_1): Sequential(\n            (0): Linear(in_features=1024, out_features=512, bias=True)\n            (1): ReLU(inplace=True)\n            (2): Dropout(p=0.1, inplace=False)\n          )\n          (dense_layer_2): Sequential(\n            (0): Linear(in_features=512, out_features=256, bias=True)\n            (1): ReLU(inplace=True)\n            (2): Dropout(p=0.1, inplace=False)\n          )\n        )\n      )\n    )\n    (1): Linear(in_features=256, out_features=1683, bias=True)\n  )\n  (deeptext): Sequential(\n    (0): Transformer(\n      (embedding): Embedding(1683, 32, padding_idx=0)\n      (pos_encoder): PositionalEncoding(\n        (dropout): Dropout(p=0.1, inplace=False)\n      )\n      (encoder): Sequential(\n        (transformer_block0): TransformerEncoder(\n          (attn): MultiHeadedAttention(\n            (dropout): Dropout(p=0.1, inplace=False)\n            (q_proj): Linear(in_features=32, out_features=32, bias=False)\n            (kv_proj): Linear(in_features=32, out_features=64, bias=False)\n            (out_proj): Linear(in_features=32, out_features=32, bias=False)\n          )\n          (ff): FeedForward(\n            (w_1): Linear(in_features=32, out_features=128, bias=True)\n            (w_2): Linear(in_features=128, out_features=32, bias=True)\n            (dropout): Dropout(p=0.1, inplace=False)\n            (activation): GELU(approximate='none')\n          )\n          (attn_addnorm): AddNorm(\n            (dropout): Dropout(p=0.1, inplace=False)\n            (ln): LayerNorm((32,), eps=1e-05, elementwise_affine=True)\n          )\n          (ff_addnorm): AddNorm(\n            (dropout): Dropout(p=0.1, inplace=False)\n            (ln): LayerNorm((32,), eps=1e-05, elementwise_affine=True)\n          )\n        )\n        (transformer_block1): TransformerEncoder(\n          (attn): MultiHeadedAttention(\n            (dropout): Dropout(p=0.1, inplace=False)\n            (q_proj): Linear(in_features=32, out_features=32, bias=False)\n            (kv_proj): Linear(in_features=32, out_features=64, bias=False)\n            (out_proj): Linear(in_features=32, out_features=32, bias=False)\n          )\n          (ff): FeedForward(\n            (w_1): Linear(in_features=32, out_features=128, bias=True)\n            (w_2): Linear(in_features=128, out_features=32, bias=True)\n            (dropout): Dropout(p=0.1, inplace=False)\n            (activation): GELU(approximate='none')\n          )\n          (attn_addnorm): AddNorm(\n            (dropout): Dropout(p=0.1, inplace=False)\n            (ln): LayerNorm((32,), eps=1e-05, elementwise_affine=True)\n          )\n          (ff_addnorm): AddNorm(\n            (dropout): Dropout(p=0.1, inplace=False)\n            (ln): LayerNorm((32,), eps=1e-05, elementwise_affine=True)\n          )\n        )\n      )\n    )\n    (1): Linear(in_features=23552, out_features=1683, bias=True)\n  )\n)</pre> <p>And as in the previous notebook, let's train (you will need a GPU for this)</p> In\u00a0[\u00a0]: Copied! <pre>trainer = Trainer(\n    model=wide_deep_model,\n    objective=\"multiclass\",\n    custom_loss_function=nn.CrossEntropyLoss(ignore_index=PAD_IDX),\n    optimizers=torch.optim.Adam(wide_deep_model.parameters(), lr=1e-3),\n)\
…
cab_size=len(text_preprocessor.vocab.itos),     embed_dim=32,     hidden_dim=64,     n_layers=2, )  deepimage = Vision()  deepdense = TabMlp(     mlp_hidden_dims=[32, 16],     column_idx=tab_preprocessor.column_idx,     cat_embed_input=tab_preprocessor.cat_embed_input,     continuous_cols=cont_cols, )  model = WideDeep(     deeptabular=deepdense,     deeptext=basic_rnn,     deepimage=deepimage, )  model Out[13]: <pre>WideDeep(\n  (deeptabular): Sequential(\n    (0): TabMlp(\n      (cat_embed): DiffSizeCatEmbeddings(\n        (embed_layers): ModuleDict(\n          (emb_layer_host_listings_count): Embedding(28, 10, padding_idx=0)\n          (emb_layer_neighbourhood_cleansed): Embedding(33, 11, padding_idx=0)\n          (emb_layer_is_location_exact): Embedding(3, 2, padding_idx=0)\n          (emb_layer_property_type): Embedding(4, 3, padding_idx=0)\n          (emb_layer_room_type): Embedding(4, 3, padding_idx=0)\n          (emb_layer_accommodates): Embedding(14, 7, padding_idx=0)\n          (emb_layer_bathrooms): Embedding(11, 6, padding_idx=0)\n          (emb_layer_bedrooms): Embedding(7, 4, padding_idx=0)\n          (emb_layer_beds): Embedding(11, 6, padding_idx=0)\n          (emb_layer_guests_included): Embedding(11, 6, padding_idx=0)\n          (emb_layer_minimum_nights): Embedding(25, 9, padding_idx=0)\n          (emb_layer_instant_bookable): Embedding(3, 2, padding_idx=0)\n          (emb_layer_cancellation_policy): Embedding(6, 4, padding_idx=0)\n          (emb_layer_has_house_rules): Embedding(3, 2, padding_idx=0)\n          (emb_layer_host_gender): Embedding(4, 3, padding_idx=0)\n          (emb_layer_accommodates_catg): Embedding(4, 3, padding_idx=0)\n          (emb_layer_guests_included_catg): Embedding(4, 3, padding_idx=0)\n          (emb_layer_minimum_nights_catg): Embedding(4, 3, padding_idx=0)\n          (emb_layer_host_listings_count_catg): Embedding(5, 3, padding_idx=0)\n          (emb_layer_bathrooms_catg): Embedding(4, 3, padding_idx=0)\n          (emb_layer_bedrooms_catg): Embedding(5, 3, padding_idx=0)\n          (emb_layer_beds_catg): Embedding(5, 3, padding_idx=0)\n          (emb_layer_security_deposit): Embedding(53, 15, padding_idx=0)\n          (emb_layer_extra_people): Embedding(39, 12, padding_idx=0)\n        )\n        (embedding_dropout): Dropout(p=0.0, inplace=False)\n      )\n      (cont_norm): Identity()\n      (encoder): MLP(\n        (mlp): Sequential(\n          (dense_layer_0): Sequential(\n            (0): Linear(in_features=128, out_features=32, bias=True)\n            (1): ReLU(inplace=True)\n            (2): Dropout(p=0.1, inplace=False)\n          )\n          (dense_layer_1): Sequential(\n            (0): Linear(in_features=32, out_features=16, bias=True)\n            (1): ReLU(inplace=True)\n            (2): Dropout(p=0.1, inplace=False)\n          )\n        )\n      )\n    )\n    (1): Linear(in_features=16, out_features=1, bias=True)\n  )\n  (deeptext): Sequential(\n    (0): BasicRNN(\n      (word_embed): Embedding(2192, 32, padding_idx=1)\n      (rnn): LSTM(32, 64, num_layers=2, batch_first=True, dropout=0.1)\n      (rnn_mlp): Identity()\n    )\n    (1): Linear(in_features=64, out_features=1, bias=True)\n  )\n  (deepimage): Sequential(\n    (0): Vision(\n      (features): Sequential(\n        (conv_layer_0): Sequential(\n          (0): Conv2d(3, 64, kernel_size=(7, 7), stride=(2, 2), padding=(3, 3), bias=False)\n          (1): BatchNorm2d(64, eps=1e-05, momentum=0.01, affine=True, track_running_stats=True)\n          (2): LeakyReLU(negative_slope=0.1, inplace=True)\n          (maxpool): MaxPool2d(kernel_size=2, stride=2, padding=0, dilation=1, ceil_mode=False)\n        )\n        (conv_layer_1): Sequential(\n          (0): Conv2d(64, 128, kernel_size=(3, 3), stride=(1, 1), padding=(1, 1), bias=False)\n          (1): BatchNorm2d(128, eps=1e-05, momentum=0.01, affine=True, track_running_stats=True)\n          (2): LeakyReLU(negative_slope=0.1, inplace=True)\n        )\n        (conv_layer_2): Sequential(\n          (0): Conv2d(128, 256, kernel_size=(3, 3), stride=(1, 1), padding=(1, 1), bias=False)\n          (1): BatchNorm2d(256, eps=1e-05, momentum=0.01, affine=True, track_running_stats=True)\n          (2): LeakyReLU(negative_slope=0.1, inplace=True)\n        )\n        (conv_layer_3): Sequential(\n          (0): Conv2d(256, 512, kernel_size=(3, 3), stride=(1, 1), padding=(1, 1), bias=False)\n          (1): BatchNorm2d(512, eps=1e-05, momentum=0.01, affine=True, track_running_stats=True)\n          (2): LeakyReLU(negative_slope=0.1, inplace=True)\n          (adaptiveavgpool): AdaptiveAvgPool2d(output_size=(1, 1))\n        )\n      )\n    )\n    (1): Linear(in_features=512, out_features=1, bias=True)\n  )\n)</pre> In\u00a0[14]: Copied! <pre>trainer = TrainerFromFolder(\n    model,\n    objective=\"regression\",\n)\n\ntrainer.fit(\n    train_loader=train_loader,\n    eval_loader=eval_loader,\n)\n</pre> trainer = TrainerFromFolder(     model,     objective=\"regression\", )  trainer.fit(     train_loader=train_loader,     eval_loader=eval_loader, ) <pr
…
